notebooks/modular_arithmetic_model.pth (torch, 919089 bytes, 12 tensors)

pos_emb f4 [1, 10, 128]
0	0xba79c991	-0.0009528632
1	0xb9e2b82a	-0.00043243292
2	0xba828e35	-0.0009960594
3	0xbadf11b1	-0.0017018822
4	0xb9c2a485	-0.0003712514
5	0xbb1d20f7	-0.0023975947
6	0x3a92e06b	0.0011205798
7	0x3b6df934	0.0036311867
8	0xb9f2a0ab	-0.00046277544
9	0x3ab63217	0.0013900426
10	0x387010a6	5.7235964e-05
11	0x3a834a80	0.001001671
12	0x3b713bbb	0.0036809284
13	0x3a95d83f	0.0011432244
14	0x3b3dabd0	0.002894152
15	0xbb04b6c8	-0.0020250548
16	0xba803a03	-0.0009782914
17	0x3a30f06e	0.0006749694
18	0xbb07de8a	-0.002073201
19	0x3a243246	0.0006263595
20	0xbabf720d	-0.0014606133
21	0xb9a9565a	-0.0003229853
22	0x3b3aee05	0.0028523218
23	0x39b4a919	0.00034458263
24	0xb94a7d9b	-0.00019311013
25	0x39b5e53f	0.00034693812
26	0xbb20089b	-0.0024419192
27	0x3b2754fc	0.0025532832
28	0x3ad7a3eb	0.001645205
29	0x3abaf2ce	0.0014263035
30	0xba90e757	-0.0011055273
31	0xbb87ef4e	-0.0041484004
32	0x3bb51c2b	0.0055270395
33	0x3badc497	0.0053029764
34	0x3b59d973	0.0033241182
35	0x3a65932a	0.0008757586
36	0xba12b3bf	-0.0005596242
37	0x3b3a51f2	0.002843019
38	0xbb83d182	-0.004022778
39	0x3b8c74b4	0.004286373
40	0x3aa10444	0.0012284596
41	0x3a33c77a	0.00068580324
42	0xbb346950	-0.0027528591
43	0xb995f4fe	-0.00028602028
44	0x3adc8a1f	0.0016825831
45	0x3b169c02	0.0022981171
46	0xba017e77	-0.0004939804
47	0x3b078793	0.0020680174
48	0xbb95ebe7	-0.004575241
49	0x3b2eb018	0.0026655253
50	0x3bca192c	0.0061675515
51	0x39c6a5ec	0.00037889124
52	0xbba8b251	-0.00514821
53	0x3c07a954	0.008280117
54	0xba8ffee0	-0.0010985993
55	0x3a5bff72	0.00083922513
56	0xbae52a9e	-0.0017484014
57	0xba3cf542	-0.0007208177
58	0xbac1f8aa	-0.0014798839
59	0xbb8c8704	-0.004288556
60	0xbb0d3db4	-0.002155167
61	0x3b1f25a7	0.0024283917
62	0x3b67062c	0.0035251481
63	0x3b2dec5c	0.0026538586
64	0xbacf39c5	-0.0015810063
65	0xbabe6066	-0.0014524579
66	0xb9cdf5f7	-0.00039283905
67	0xbb81fb91	-0.0039667566
68	0xbb9768ed	-0.0046206624
69	0x3a39d05d	0.00070882385
70	0x3b24e43d	0.0025160455
71	0xbae8015f	-0.0017700604
72	0x3b4e6198	0.0031491276
73	0xba0582bd	-0.0005093029
74	0x3a9671d0	0.001147801
75	0x3aad6b08	0.001323075
76	0xb8d56d50	-0.000101769925
77	0xbba09b03	-0.0049012913
78	0xbb8d6660	-0.0043151826
79	0xba016bf5	-0.00049370463
80	0x3923e5d6	0.00015630512
81	0xbc0d3919	-0.00861957
82	0xbb2609dd	-0.0025335469
83	0xba28fda0	-0.00064464845
84	0xb9ec358e	-0.0004505333
85	0x3c0b4a91	0.008501665
86	0x3adfc819	0.0017073184
87	0xba90f1f8	-0.001105844
88	0x3ba82c78	0.005132254
89	0x390f1d18	0.00013648381
90	0x3b421d6b	0.0029619585
91	0xba24cfc4	-0.0006287063
92	0x3ad7c8e3	0.0016463067
93	0xbc107238	-0.008816294
94	0xba8c14e8	-0.0010687383
95	0x3a2da0ac	0.0006623368
96	0xbbc3961a	-0.0059688212
97	0x3b4f4074	0.003162411
98	0x3ac68ec3	0.0015148747
99	0x3b1546d9	0.0022777824
100	0x39dec9d4	0.00042493513
101	0xba531559	-0.0008052192
102	0xba97d405	-0.0011583572
103	0xbab1be34	-0.0013560713
104	0xbaa95199	-0.0012917995
105	0xbb852450	-0.0040631667
106	0x3b1fad32	0.0024364707
107	0x3b9217ba	0.004458395
108	0x3acf8484	0.0015832339
109	0x3b4c8459	0.0031206815
110	0x3a4d9985	0.00078430056
111	0x39ffc0e8	0.00048781116
112	0x3b72aab7	0.0037028024
113	0x3bd71e15	0.0065648654
114	0xbabc9ac5	-0.0014389387
115	0xbb1f0a1c	-0.00242675
116	0x3a03a37a	0.00050216133
117	0xbb3b2056	-0.002855321
118	0x3b9021a3	0.004398541
119	0x3b551a7f	0.0032517014
120	0x3b1b4ae5	0.0023695764
121	0x3a59b667	0.0008305073
122	0x3af36a42	0.0018571096
123	0x3af1717e	0.0018420664
124	0x3b08aab7	0.0020853707
125	0x3b8808fd	0.004151462
126	0xbaf68687	-0.0018808403
127	0xbbaaf6e7	-0.0052174213
128	0x3dab9c07	0.08379369
129	0xbcf5c110	-0.029999286
130	0x3c2f3ede	0.010696141
131	0xbbf6e96c	-0.0075351503
132	0x3c455449	0.012044021
133	0xbdd67b5a	-0.10472746
134	0x3db83759	0.08994932
135	0xbd670f4b	-0.05641107
136	0x3b9f6df8	0.004865404
137	0xbdedb8f7	-0.11607545
138	0x3cc35e0e	0.02384856
139	0xbcf625b6	-0.030047279
140	0xbe34a949	-0.17642702
141	0xbced49d3	-0.028965866
142	0x3b01254b	0.0019706066
143	0x3caa5e2c	0.020796858
144	0x3d1e20dd	0.03860556
145	0x3d6ff31f	0.058581468
146	0x3cd0228e	0.025407102
147	0xbcfaa70c	-0.030597232
148	0x3d815c73	0.063164614
149	0x3d36a261	0.04458845
150	0x3ccf430a	0.025300521
151	0xbd008e75	-0.031385858
152	0xbc4ece65	-0.0126224505
153	0xbc0ca407	-0.008584029
154	0x3c2ffe98	0.010741852
155	0xbafb7f8d	-0.0019187793
156	0x3d3c9fbd	0.046050776
157	0xbbed61b7	-0.0072443145
158	0x3db68af3	0.08913221
159	0xbd2a5d8c	-0.04159312
160	0x3c76a664	0.015054319
161	0xbc1e1819	-0.0096493
162	0x3d90a6c8	0.07063061
163	0xbd86d1aa	-0.06582959
164	0x3cc3b31c	0.023889117
165	0xbe1c44b0	-0.15260577
166	0xbc5b68de	-0.0133917015
167	0xbe5242fc	-0.20533365
168	0xbdbeb02d	-0.093109466
169	0xbd1d733c	-0.038439974
170	0x3d853f19	0.065061755
171	0x3ddc9837	0.1077122
172	0x3d8d18ad	0.06889472
173	0x3ca58ecd	0.020209694
174	0xbaaeb1b4	-0.0013328106
175	0xbd84d326	-0.06485586
176	0xbb951fd5	-0.004550914
177	0x3d8d30af	0.06894051
178	0x3b74a30d	0.003732863
179	0xbd2c862d	-0.042120147
180	0xbb80abd2	-0.0039267326
181	0x3d817103	0.063203834
182	0xbcae4984	-0.02127529
183	0xbd0ec02b	-0.034851234
184	0x3cef7e0f	0.029234914
185	0x3c873a46	0.01650728
186	0x3c9e619e	0.019333657
187	0x3d66c889	0.05634359
188	0x3cc20283	0.023682838
189	0x3d7bd649	0.061483655
190	0xbd757c00	-0.05993271
191	0xbdec16c8	-0.11527783
192	0x3d18c395	0.037295897
193	0x3da9f21b	0.08298131
194	0xbd8a4ec8	-0.067533076
195	0xbb066132	-0.002050471
196	0xbdd057e9	-0.101730175
197	0xbbca999a	-0.0061828615
198	0xbcae53f0	-0.021280259
199	0xbde12f52	-0.10995354
200	0xbd140344	-0.036135927
201	0x3cdae025	0.026718209
202	0x3cd73319	0.026269482
203	0xbd3195b6	-0.043355666
204	0xbc49e042	-0.012321534
205	0x3e60edc6	0.21965703
206	0xbd076ac8	-0.03306082
207	0x3e3fab29	0.18717636
208	0x3d087fd8	0.033325046
209	0x3e4fa9e0	0.20279646
210	0x3cf00124	0.029297419
211	0xbd8dc355	-0.06922022
212	0x3d29dbca	0.041469373
213	0xbe1485ff	-0.1450424
214	0x3d9bc94e	0.07606755
215	0x3d686864	0.05674018
216	0xbdc566d7	-0.09638756
217	0x3c366b5f	0.011133998
218	0xbd841f6b	-0.06451305
219	0xbc6a90e3	-0.01431677
220	0x3dd955e1	0.10612083
221	0xbdaf288c	-0.085526556
222	0xbcb00086	-0.021484625
223	0x3cca871a	0.024722625
224	0x3e5c780c	0.21530169
225	0xbd85a689	-0.06525905
226	0xbcbdacc3	-0.023153668
227	0xbe859446	-0.26089686
228	0xbd09ad96	-0.03361281
229	0xbcc62b09	-0.024190443
230	0x3d7f32ed	0.062304426
231	0xbbe899ee	-0.007098428
232	0xbd238203	-0.03991891
233	0x3da93309	0.08261687
234	0xbd09eab3	-0.033671092
235	0x3e089604	0.13338476
236	0xba454868	-0.0007525743
237	0xbcdf1b52	-0.027234707
238	0x3c1265d4	0.0089354105
239	0x3b347665	0.002753639
240	0xbe0ba4c6	-0.13637075
241	0xbd6e8cad	-0.058239628
242	0xbcf34592	-0.02969626
243	0x3d8959ae	0.06706558
244	0xbd63644e	-0.05551558
245	0x3e0f8b70	0.14018035
246	0xbd2bd0dc	-0.04194723
247	0xbd2b03cd	-0.04175167
248	0xbd69a45a	-0.057041503
249	0x3d983962	0.0743282
250	0x3a3e0468	0.00072485814
251	0x3ca34e3d	0.019934768
252	0xbd09b407	-0.033618953
253	0xbbfc1a03	-0.0076935305
254	0xbbd0ff4d	-0.0063780905
255	0x3cf9f6f3	0.030513262

embedding.weight f4 [116, 128]
0	0x3d1ddbd7	0.038539734
1	0xbe3106d2	-0.17287758
2	0xbc96c0a1	-0.0184024
3	0xbdabbc4e	-0.08385526
4	0xbbaa26a4	-0.0051925946
5	0xbbce61b9	-0.0062982705
6	0x3dcb5a42	0.09929325
7	0xbc72c8b7	-0.014818362
8	0xbba5fc7a	-0.005065498
9	0xbc459789	-0.012060055
10	0xbb1baa60	-0.0023752674
11	0x3d0d11ed	0.034440923
12	0x3c5ad324	0.013356004
13	0xbc8b8315	-0.017030278
14	0xbcd41524	-0.025888987
15	0xbd595f1c	-0.05306922
16	0x3d96e1de	0.073672995
17	0x3b0c4cdf	0.0021408123
18	0xbcfad5b6	-0.030619483
19	0x3d360455	0.044437725
20	0xbd0ae842	-0.033912905
21	0xbdd1148c	-0.10208997
22	0xbd099566	-0.033589743
23	0x3c0393aa	0.008030811
24	0x3c445b67	0.011984683
25	0x3d0be569	0.03415433
26	0xbc032e71	-0.008006678
27	0x3cfa4ccd	0.0305542
28	0x3c81ef30	0.015861124
29	0xbdcfa213	-0.10138335
30	0xbd5e2eea	-0.05424396
31	0x3ce152ae	0.027505245
32	0x3daab82d	0.0833591
33	0x3d7891b4	0.06068583
34	0x3b8a517b	0.004221139
35	0xbdb596da	-0.08866663
36	0x3c51985b	0.012792672
37	0x3d5409d1	0.051767174
38	0x3d0763c0	0.033054113
39	0x3d19000a	0.037353553
40	0xbcc7e6c9	-0.02440204
41	0x3c1e6506	0.009667641
42	0xbbb37c49	-0.0054774624
43	0x3b1b204a	0.0023670369
44	0xbd320df9	-0.043470357
45	0xbd84dbc1	-0.06487227
46	0x3c8323ac	0.01600822
47	0xbddf2136	-0.10895006
48	0xbda7f459	-0.082009025
49	0xbdb114e7	-0.08646565
50	0xbced183d	-0.028942222
51	0x3c5d647f	0.01351273
52	0xbd923902	-0.071397796
53	0xbdbf61ba	-0.09344812
54	0x3c488f33	0.012241173
55	0xbda385d4	-0.0798451
56	0xbbbbedb1	-0.005735122
57	0xbd5a591c	-0.053307638
58	0xbd35e36f	-0.04440635
59	0xbd113455	-0.0354503
60	0xbcdbcd06	-0.026831161
61	0xbbba676d	-0.005688599
62	0xbd50eb55	-0.05100568
63	0x3d3c53b3	0.04597826
64	0xbd83eccb	-0.06441649
65	0x3b779571	0.0037778283
66	0x3ce93377	0.028466923
67	0xbd4bf014	-0.049789503
68	0xbdc9bf52	-0.098509446
69	0x3d8a3d25	0.06749944
70	0xbcb82d24	-0.022482462
71	0xbd2c0afa	-0.042002656
72	0x3d367fa2	0.044555314
73	0x3c0f98f3	0.008764493
74	0x3df1c98b	0.118060194
75	0xbcb4c509	-0.02206661
76	0xbb1eafb6	-0.0024213619
77	0x3cf420e5	0.029800842
78	0x3c8bb210	0.01705268
79	0x3cce5c4d	0.025190497
80	0x3de7b872	0.11314477
81	0xbd8354c9	-0.06412656
82	0x3c93f172	0.018059466
83	0x3dd94a2e	0.10609852
84	0xbb1bcb1e	-0.002377219
85	0x3e30b933	0.17258148
86	0xba832fcb	-0.001000875
87	0x3d4c7857	0.049919453
88	0xbdbd1862	-0.09233166
89	0xbd359f66	-0.044341467
90	0xbbdcd071	-0.0067387153
91	0xbcf0e399	-0.029405402
92	0x3c39c27b	0.011337872
93	0xbda742f9	-0.08167071
94	0xbca15eea	-0.019698579
95	0xbc147d02	-0.009063007
96	0x3dcc1012	0.09964003
97	0xbdbe0e52	-0.09280075
98	0x3d140e87	0.036146667
99	0x3dacaecc	0.08431777
100	0xbe017d55	-0.12645467
101	0x3dc4b9d5	0.09605757
102	0xbca43d80	-0.020048857
103	0x3cf822d4	0.030290045
104	0xbdcbc18c	-0.099490255
105	0xbe024a93	-0.1272376
106	0x3db1ade9	0.08675749
107	0x3db38bcc	0.087668985
108	0xbd92e307	-0.07172208
109	0x3cf63346	0.030053746
110	0x3d1f56f7	0.038901296
111	0xbd8359b4	-0.06413594
112	0xbcf6e8fe	-0.030140396
113	0xbdddc615	-0.10828797
114	0x3dfa349e	0.12217067
115	0xbd2dda06	-0.04244425
116	0xbd9232dc	-0.07138607
117	0x3de4e97a	0.111773446
118	0x3d47ef88	0.04881242
119	0x3d6e640c	0.05820088
120	0x3d0a56c4	0.033774152
121	0x3d32beef	0.04363912
122	0x3c317187	0.01083029
123	0x3d1a0e75	0.037611444
124	0x3d020070	0.0317387
125	0xbcf40132	-0.029785726
126	0xbddca63d	-0.10773895
127	0x3c1b07b5	0.009462287
128	0x3d039f42	0.032134302
129	0x3dc97a15	0.098377384
130	0x3c5bd292	0.013416903
131	0xbc4dc72c	-0.012559693
132	0x3d169fae	0.036773376
133	0x3c29be2c	0.010360282
134	0xbb6f0295	-0.0036470045
135	0xbc393930	-0.0113051385
136	0x3d3f1769	0.046653185
137	0xbb3710e9	-0.0027933663
138	0x3ca58103	0.02020312
139	0xbbb8b0dd	-0.005636318
140	0x3b080ef1	0.002076086
141	0xbdd813c3	-0.10550644
142	0x3ddad3c6	0.10684924
143	0xbd0396b3	-0.03212614
144	0x3ba76442	0.005108387
145	0x3cb51fb1	0.022109838
146	0xbd57e561	-0.052708987
147	0xbe68db9b	-0.22740023
148	0xbce2e704	-0.027698047
149	0x3e1fec4b	0.15617482
150	0xbc98153c	-0.018564813
151	0x3d08165c	0.03322445
152	0x3ceadd7d	0.028670067
153	0xbddae52c	-0.10688242
154	0xbd0385b2	-0.032109924
155	0x3c2524e6	0.010079598
156	0xbce6004b	-0.028076312
157	0x3d93b39b	0.072119914
158	0x3e066cc5	0.1312743
159	0xbd3ca6cf	-0.04605752
160	0x3d57c510	0.052678168
161	0x3ccbb1fa	0.02486514
162	0x3dbc7be7	0.0920332
163	0x3cd8938d	0.026437545
164	0xbd9ac924	-0.07557896
165	0x3d121528	0.035664707
166	0xbd939fd9	-0.07208223
167	0x3d3ae6cf	0.045630272
168	0x3cc0e242	0.023545388
169	0xbd5fcf61	-0.05464113
170	0xbb9050f4	-0.0044041816
171	0x3d76e047	0.06027248
172	0x3cd67010	0.026176482
173	0x3d7674b3	0.060169887
174	0x3dba4fcd	0.09097252
175	0x3d753200	0.059862137
176	0xbce1dbeb	-0.027570685
177	0x3e163b91	0.1467116
178	0xbd545adc	-0.051844463
179	0x3d1f61b8	0.03891155
180	0x3d88466b	0.06654056
181	0x3d0213d4	0.03175719
182	0xbab01a73	-0.0013435617
183	0x3d1d5fe0	0.03842151
184	0x3b94d3f2	0.0045418674
185	0x3db0be9a	0.08630104
186	0x3d3fb79f	0.046805974
187	0xbdb6a9d6	-0.089191124
188	0x3c19a205	0.009377007
189	0x3da40aaf	0.0800985
190	0x3dc4a228	0.09601241
191	0x3cc178f4	0.023617245
192	0xbc79800f	-0.015228285
193	0xbcee0fd2	-0.029060278
194	0x3cb578df	0.022152362
195	0x3d4cbec1	0.049986605
196	0xbc8673c2	-0.01641262
197	0xbcbda12b	-0.02314814
198	0x3d09caa4	0.03364052
199	0x3beae6b8	0.007168617
200	0x3c4ff135	0.012691786
201	0xbcbe1073	-0.023201203
202	0xbd9a68d1	-0.075395234
203	0x3d5e4e17	0.05427369
204	0xbbe1a99e	-0.006886675
205	0xbad0b5ff	-0.001592338
206	0xbe24e618	-0.16103399
207	0x3e4a7159	0.19769801
208	0x3d0e739b	0.03477822
209	0x3cea8b4e	0.028630879
210	0x3be7dc14	0.007075796
211	0xbb887109	-0.0041638655
212	0xbd40d351	-0.047076527
213	0xbd33dc6a	-0.043911375
214	0x3d7be2ae	0.061495475
215	0xbd87d5e8	-0.06632596
216	0x3d91134f	0.07083761
217	0x3c597f5f	0.013274997
218	0x3c273ed9	0.010207855
219	0xbd9bd38b	-0.07608708
220	0x3d995de7	0.074886136
221	0x3ccfcfb9	0.025367605
222	0x3c2855c8	0.010274358
223	0x3c976020	0.018478453
224	0x3a1b0085	0.0005912858
225	0x3ccc4143	0.024933463
226	0x3c97fae2	0.018552247
227	0xbbc27924	-0.0059348512
228	0x3b2436d4	0.0025057094
229	0xbd256433	-0.04037876
230	0x3da3f3d4	0.08005491
231	0xbb8387bd	-0.004013984
232	0x3d9f7f59	0.077879615
233	0xbdad25b7	-0.08454459
234	0xbd0286bf	-0.031866785
235	0xbd284c14	-0.04108818
236	0x3d3b6383	0.0457492
237	0x3cfea494	0.031084336
238	0xbc933f21	-0.017974438
239	0x3c0d5702	0.008626701
240	0x3c93c43a	0.018037904
241	0x3debbd64	0.11510733
242	0xbbc58f97	-0.00602908
243	0x3d04b090	0.032394946
244	0xbd984ff2	-0.07437123
245	0x3d4134b1	0.04716939
246	0xbdcaf699	-0.09910316
247	0xbd43135f	-0.047625896
248	0xbc6a838f	-0.014313593
249	0x3ca250c9	0.019813912
250	0x3cc0ed94	0.023550786
251	0xbd6c1670	-0.057638586
252	0xbd10008f	-0.035156783
253	0x3c625235	0.013813545
254	0xbdd5d395	-0.10440747
255	0xbce2c659	-0.02768247

attn.in_proj_weight f4 [384, 128]
0	0x3e4c2900	0.19937515
1	0xbdc17fd9	-0.09448213
2	0x3e26f23d	0.16303344
3	0x3d0913a4	0.033465996
4	0x3d7a5f7a	0.06112621
5	0xbe6d9041	-0.2319956
6	0x3e15f8fc	0.14645761
7	0xbdf4cd06	-0.119531676
8	0x3dbe245b	0.09284278
9	0xbdf06748	-0.11738449
10	0x3df0c37b	0.11756035
11	0xbd308202	-0.043092735
12	0xbe209e93	-0.15685491
13	0xbea5aad4	-0.32356894
14	0xbe0cca23	-0.13748984
15	0x3e69bb3c	0.2282533
16	0x3e79f950	0.24411511
17	0x3df2892a	0.11842568
18	0x3de165b6	0.11005728
19	0xbdeea2f8	-0.116521776
20	0x3d6e91b1	0.05824441
21	0x3de37cd6	0.11107795
22	0x3da2254e	0.079172716
23	0x3aa1bee3	0.0012340214
24	0x3d41904b	0.04725675
25	0xbd2c352a	-0.04204289
26	0x3e101943	0.14072137
27	0xbd9ab061	-0.07553173
28	0x3dbda4b7	0.092599325
29	0xbe86287c	-0.26202762
30	0x3e6715a0	0.22566843
31	0xbe186db8	-0.14885604
32	0xbe16c0e7	-0.14722024
33	0xbdacb6fc	-0.08433339
34	0x3e564949	0.20926394
35	0xbdc8b87b	-0.09800812
36	0x3e88fb0a	0.26754028
37	0xbe5dc676	-0.21657738
38	0xbdee32a2	-0.11630751
39	0xbe33a664	-0.17543942
40	0xbe076ecd	-0.13225861
41	0xbdaed543	-0.0853677
42	0x3e749ba8	0.23887503
43	0x3e5fc2aa	0.21851602
44	0x3d76d6fa	0.06026361
45	0x3d31ac70	0.04337734
46	0x3e448579	0.19191541
47	0xbe9b4458	-0.3032558
48	0xbd3ff566	-0.04686489
49	0x3e5bd5e1	0.21468307
50	0xbe379a31	-0.17929913
51	0xbe224ba2	-0.15849164
52	0x3dc043aa	0.09387906
53	0x3ea2196b	0.31660017
54	0xbe0c0a6d	-0.13675852
55	0xbda0ed91	-0.07857812
56	0x3e294817	0.16531406
57	0x3e0e9568	0.13924181
58	0x3ccbe870	0.024891108
59	0x3e922c3d	0.28549376
60	0x3d29deb5	0.041472156
61	0x3de1ea61	0.11031032
62	0xbe5cc015	-0.21557648
63	0xbe77e8c9	-0.24209894
64	0x3daa0a54	0.08302751
65	0x3e75b2e6	0.23994026
66	0xbdec20af	-0.115296714
67	0x3e0ec128	0.13940871
68	0xbe8f1a37	-0.27949688
69	0xbcc95b59	-0.02457969
70	0xbd9559e7	-0.07292538
71	0xbd6b4c4d	-0.057445813
72	0xbe59d8ab	-0.21274059
73	0x3e1f1e79	0.15538968
74	0x3db6da9c	0.08928415
75	0xbe586505	-0.21132286
76	0xbbd25184	-0.006418409
77	0x3e4a12d6	0.19733748
78	0xbe825a6f	-0.2545962
79	0x3ea0137d	0.31264868
80	0x3e190a23	0.14945273
81	0x3e082c01	0.13298036
82	0x3e2a9d41	0.1666155
83	0xbdff5aee	-0.12468515
84	0x3e334d62	0.17509988
85	0xbdda7ab5	-0.10667936
86	0x3e34f1ec	0.17670411
87	0x3e63bcfa	0.22240058
88	0xbdbcd65a	-0.09220572
89	0x3e5f24b2	0.21791342
90	0xbdfb5d4f	-0.122736566
91	0xbd4de126	-0.050263546
92	0x3e150e0c	0.1455614
93	0xbe1eb293	-0.15497808
94	0xbc9e0d62	-0.01929349
95	0x3c9afcdf	0.018919406
96	0x3e77d95b	0.24204008
97	0xbe241e26	-0.16027126
98	0xbedda63a	-0.43290883
99	0xbe7f11f9	-0.249092
100	0xbe47ad79	-0.19499768
101	0xbd95f288	-0.0732165
102	0x3e29c6e9	0.16579784
103	0x3d2baa15	0.04191025
104	0xbe35c4c0	-0.17750835
105	0x3e268aff	0.1626396
106	0xbe1ca86f	-0.15298627
107	0x3e9ab8d8	0.3021915
108	0xbd156a84	-0.036478534
109	0xbd57660f	-0.052587565
110	0xbe142670	-0.14467788
111	0x3d947ddf	0.072505705
112	0xbdc8e60c	-0.09809503
113	0xbe72ae0a	-0.23699203
114	0xbde45077	-0.1114816
115	0x3e6c56d6	0.2308
116	0xbe98d9f0	-0.29853773
117	0x3e1e142e	0.15437385
118	0xbe031d70	-0.12804198
119	0xbe74d200	-0.23908234
120	0xbd7a54e5	-0.061116118
121	0x3ed740f2	0.42041737
122	0xbe1f38aa	-0.1554896
123	0x3e1e6f09	0.15472044
124	0xbe414f55	-0.18877919
125	0xbe1da10e	-0.15393469
126	0xbe103300	-0.14081955
127	0x3d9d0c80	0.076684
128	0x3e54c186	0.20776948
129	0xbdccc505	-0.09998516
130	0x3e30c534	0.17262727
131	0x3d121ccc	0.035671994
132	0x3d850c20	0.06496453
133	0xbe77a654	-0.24184543
134	0x3e1e78e0	0.15475798
135	0xbe014ce7	-0.12626992
136	0x3dc9e365	0.09857825
137	0xbdfe58cb	-0.1241928
138	0x3dfd13fb	0.123573266
139	0xbd3c0908	-0.04590705
140	0xbe28bb26	-0.16477641
141	0xbea9a90d	-0.33136788
142	0xbe141558	-0.14461267
143	0x3e7392ed	0.23786516
144	0x3e810847	0.25201628
145	0x3e002db8	0.1251744
146	0x3deee642	0.11665012
147	0xbdfbedc8	-0.123012125
148	0x3d7e318c	0.06205897
149	0x3df12709	0.117750235
150	0x3dabfac4	0.08397439
151	0x3aaefc06	0.0013350255
152	0x3d4dc7bd	0.050239313
153	0xbd376e64	-0.04478301
154	0x3e19197a	0.14951125
155	0xbda45c20	-0.08025384
156	0x3dc93a01	0.098255165
157	0xbe8a43ab	-0.27004752
158	0x3e6f7579	0.23384656
159	0xbe20ef2b	-0.15716235
160	0xbe1f3661	-0.15548088
161	0xbdb71505	-0.08939556
162	0x3e5fc4c3	0.21852402
163	0xbdd4e798	-0.103957355
164	0x3e8d6457	0.27615616
165	0xbe67d5c4	-0.22640139
166	0xbdfbeae7	-0.123006634
167	0xbe3c528a	-0.18390861
168	0xbe0f57bf	-0.13998316
169	0xbdb95e15	-0.09051148
170	0x3e7f755a	0.2494711
171	0x3e67d20d	0.22638722
172	0x3d8336cb	0.06406935
173	0x3d3d68d2	0.046242543
174	0x3e4e32c3	0.20136552
175	0xbe9cf412	-0.3065496
176	0xbd4b946a	-0.049702086
177	0x3e6605f5	0.2246321
178	0xbe407984	-0.18796355
179	0xbe2aaec4	-0.1666823
180	0x3dcc6bc1	0.0998149
181	0x3ea760a9	0.32690933
182	0xbe139067	-0.14410554
183	0xbdaad1d4	-0.08340803
184	0x3e30e3e2	0.1727443
185	0x3e162800	0.14663696
186	0x3cd97312	0.026544128
187	0x3e95b1a2	0.29237086
188	0x3d3566b7	0.04428741
189	0x3deec937	0.116594724
190	0xbe66593a	-0.22494975
191	0xbe7fe6e8	-0.24990427
192	0x3db4584e	0.08805905
193	0x3e7f401f	0.24926804
194	0xbdf9e13c	-0.12201163
195	0x3e16cc65	0.14726408
196	0xbe93a339	-0.28835467
197	0xbcd68b03	-0.026189333
198	0xbd9eb9a4	-0.07750252
199	0xbd7ab459	-0.06120715
200	0xbe62d086	-0.22149858
201	0x3e277293	0.163523
202	0x3dc224fa	0.09479709
203	0xbe6107ec	-0.21975678
204	0xbbdffceb	-0.00683557
205	0x3e537107	0.20648585
206	0xbe87339c	-0.26406562
207	0x3ea2c555	0.31791177
208	0x3e211066	0.15728912
209	0x3e0f8b1d	0.14017911
210	0x3e3405af	0.17580293
211	0xbe06c5c1	-0.13161375
212	0x3e3c2044	0.18371683
213	0xbde77ec3	-0.11303475
214	0x3e3ddd56	0.18541464
215	0x3e6bb2f3	0.23017482
216	0xbdc8d968	-0.09807092
217	0x3e6723c5	0.22572239
218	0xbe04b247	-0.12958632
219	0xbd5aec40	-0.05344796
220	0x3e1d6a4c	0.1537258
221	0xbe2746da	-0.16335621
222	0xbca84922	-0.020542685
223	0x3ca4bcd2	0.020109568
224	0x3e804f3f	0.2506046
225	0xbe2c70b6	-0.16839871
226	0xbee116bf	-0.43962666
227	0xbe844aad	-0.25838223
228	0xbe51caa5	-0.20487459
229	0xbd9f7b82	-0.07787229
230	0x3e33079c	0.17483371
231	0x3d37420a	0.044740714
232	0xbe3ea56c	-0.18617791
233	0x3e2e72e2	0.17036012
234	0xbe24b508	-0.16084683
235	0x3e9da7da	0.30792123
236	0xbd1eabfe	-0.038738243
237	0xbd655d7a	-0.05599735
238	0xbe1c728d	-0.15278073
239	0x3d9db6dd	0.07700894
240	0xbdd4d230	-0.103916526
241	0xbe7d0039	-0.24707116
242	0xbdf1ca54	-0.11806169
243	0x3e75eca4	0.24016052
244	0xbe9b028f	-0.3027539
245	0x3e263480	0.16230965
246	0xbe0a171f	-0.13485382
247	0xbe7d9b34	-0.24766237
248	0xbd852dc2	-0.06502868
249	0x3edb84ce	0.4287476
250	0xbe281153	-0.16412859
251	0x3e26b888	0.1628133
252	0xbe4a3ef5	-0.19750579
253	0xbe260251	-0.16211821
254	0xbe187159	-0.14886989
255	0x3da5c0ab	0.08093389

attn.in_proj_bias f4 [384]
0	0x3e20ef06	0.1571618
1	0x3e298c03	0.16557316
2	0x3e2a30a4	0.16620117
3	0xbe1c1c64	-0.15245205
4	0xbe232d1e	-0.1593518
5	0xbe1cb927	-0.15305005
6	0x3e1bbae8	0.15208018
7	0xbe1cafbe	-0.15301415
8	0xbe1be012	-0.15222195
9	0xbe224532	-0.15846708
10	0xbe1ee4ef	-0.15517019
11	0xbe1c0197	-0.15234981
12	0xbe2814c7	-0.16414176
13	0x3e1e777d	0.15475269
14	0x3e1dbbbd	0.15403648
15	0xbe120b5b	-0.14262144
16	0xbe1f4624	-0.155541
17	0x3e1da671	0.15395524
18	0xbe252698	-0.16128004
19	0x3e2a2c6f	0.16618513
20	0x3e1e9999	0.1548828
21	0xbe21ba85	-0.15793808
22	0x3e23f1fd	0.1601028
23	0x3e287a38	0.16452873
24	0x3e217676	0.15767846
25	0xbe2b526a	-0.16730657
26	0x3e24cd49	0.16093935
27	0xbe188ed6	-0.14898238
28	0x3e21dc68	0.15806735
29	0xbe1fcfee	-0.15606663
30	0x3e23842d	0.1596839
31	0x3e2a6542	0.1664019
32	0xbe3f5c87	-0.1868764
33	0x3e33fa00	0.17575836
34	0xbe3907df	-0.18069409
35	0xbe317440	-0.17329502
36	0x3e25b3cc	0.16181868
37	0x3e36b543	0.17842583
38	0xbe329261	-0.17438652
39	0xbe32cac2	-0.17460158
40	0xbe2bb412	-0.1676791
41	0x3e31a653	0.17348604
42	0xbe3835bb	-0.17989247
43	0x3e376c94	0.17912513
44	0xbe32c974	-0.17459661
45	0xbe3616a0	-0.17782068
46	0xbe37500d	-0.1790163
47	0x3e401159	0.18756618
48	0x3e460f8c	0.19341868
49	0xbe2ed09f	-0.1707177
50	0xbe38a61f	-0.1803212
51	0xbe21a448	-0.15785325
52	0xbe3811b9	-0.1797551
53	0xbe407113	-0.18793134
54	0xbe189543	-0.14900689
55	0xbe387339	-0.18012704
56	0xbe3b8591	-0.1831267
57	0xbe3bc6ec	-0.18337601
58	0xbe339987	-0.17539035
59	0xbe34d7c4	-0.17660433
60	0x3e362e60	0.17791128
61	0x3e3d3950	0.18478894
62	0xbe3447bb	-0.17605488
63	0xbe29d81c	-0.16586345
64	0x3e274b81	0.16337396
65	0x3e2fea4d	0.17179222
66	0xbe2e0c75	-0.1699694
67	0xbe22e2a2	-0.15906766
68	0x3e28f617	0.16500126
69	0xbe256bc7	-0.16154395
70	0xbe290efe	-0.16509625
71	0x3e2b7b02	0.16746143
72	0xbe20b282	-0.15693095
73	0x3e2d2874	0.16909963
74	0xbe29b375	-0.16572364
75	0x3e2b60c9	0.1673614
76	0x3e25574b	0.16146581
77	0x3e2fcf15	0.1716884
78	0xbe2a35e8	-0.16622126
79	0xbe281480	-0.1641407
80	0xbe1894b3	-0.14900474
81	0x3e2d849f	0.16945122
82	0xbe2f2f4d	-0.17107888
83	0x3e2cfeaf	0.16894029
84	0x3e2d1d1e	0.16905639
85	0x3e1f9545	0.15584286
86	0xbe318e97	-0.1733955
87	0x3e27c97f	0.16385458
88	0x3e2f7a73	0.17136554
89	0xbe2e7ea1	-0.17040493
90	0x3e1e5017	0.1546024
91	0x3e0d67d1	0.13809134
92	0x3e29923e	0.16559693
93	0x3e2bfd17	0.16795765
94	0x3e29b907	0.16574489
95	0xbe3b12f5	-0.1826895
96	0x3e21847e	0.15773198
97	0xbe204c37	-0.15654074
98	0xbe170e71	-0.14751603
99	0xbe178ad1	-0.14799048
100	0x3e1c4ec7	0.15264426
101	0x3e2694b9	0.1626767
102	0x3e1f57b6	0.15560803
103	0xbe31a084	-0.17346388
104	0xbe182a87	-0.14859973
105	0x3e20dff4	0.15710431
106	0xbe2d78f5	-0.16940673
107	0x3e23f2c3	0.16010575
108	0x3e2bc7e7	0.16775475
109	0x3e2965cb	0.16542737
110	0x3e250b12	0.16117504
111	0x3e20af49	0.15691866
112	0xbe2e59dd	-0.17026468
113	0xbe126a43	-0.14298348
114	0x3e29796b	0.16550224
115	0x3e1c7ac8	0.15281212
116	0x3e20f949	0.15720095
117	0x3e2cf097	0.16888653
118	0x3e2418a9	0.16025032
119	0xbe2a85c7	-0.16652595
120	0xbe20d194	-0.15704948
121	0x3dff0204	0.12451556
122	0x3e1dd5aa	0.15413538
123	0xbe1c74a1	-0.15278865
124	0x3e202f6c	0.1564309
125	0x3e2b4dbd	0.16728874
126	0xbe266a9b	-0.16251604
127	0x3e20d8e2	0.15707734
128	0xb6ce833d	-6.1545566e-06
129	0xb6c26ba5	-5.794182e-06
130	0xb74e964e	-1.2313552e-05
131	0x3752dcb4	1.2568362e-05
132	0x37175537	9.020142e-06
133	0x3650ec0f	3.113182e-06
134	0xb6aacace	-5.0900044e-06
135	0x3648b506	2.9907692e-06
136	0x374921e6	1.1988426e-05
137	0x36dd15e4	6.5888617e-06
138	0x368eb1ab	4.252613e-06
139	0x3610b34f	2.1562043e-06
140	0x36f55eea	7.3126184e-06
141	0xb6b7de58	-5.479709e-06
142	0xb74ccb1b	-1.2206637e-05
143	0x37398608	1.1058066e-05
144	0x368973da	4.096405e-06
145	0xb6bc3de7	-5.610043e-06
146	0x370770e5	8.072912e-06
147	0xb77cbc24	-1.5064175e-05
148	0xb728f130	-1.0069736e-05
149	0x37176e34	9.02596e-06
150	0xb7359581	-1.082325e-05
151	0xb70e4592	-8.480058e-06
152	0xb6b43262	-5.3702834e-06
153	0x3707d732	8.096731e-06
154	0xb6b3cca0	-5.358437e-06
155	0x3729f2d0	1.0129719e-05
156	0xb6d52d6a	-6.3531816e-06
157	0x37108821	8.614764e-06
158	0xb6ac61fd	-5.137407e-06
159	0xb72b6bb1	-1.0217468e-05
160	0xb5d95e95	-1.6195287e-06
161	0xb683eb62	-3.9315064e-06
162	0x35060807	4.993057e-07
163	0x3653e9c6	3.1577524e-06
164	0xb63ed083	-2.8433576e-06
165	0x3571529e	8.989972e-07
166	0xb28bc763	-1.62724e-08
167	0xb5839e99	-9.806419e-07
168	0x35e27830	1.6873291e-06
169	0xb684ce2e	-3.957909e-06
170	0x35a1fc66	1.2068892e-06
171	0xb680629a	-3.826176e-06
172	0x34a1c4fc	3.0131912e-07
173	0x35fcb8f8	1.8829296e-06
174	0x366e81c0	3.5540288e-06
175	0xb61d4116	-2.3432708e-06
176	0xb69e0ab9	-4.710015e-06
177	0x36bb4427	5.5809683e-06
178	0x36d4e856	6.34514e-06
179	0x36365233	2.716796e-06
180	0x36a6306f	4.952824e-06
181	0xb58b8688	-1.0395461e-06
182	0x3608bd38	2.037572e-06
183	0x363d2740	2.8186041e-06
184	0x362f73d5	2.6144455e-06
185	0x367faeaf	3.809964e-06
186	0x36e8d362	6.938747e-06
187	0x360ceb56	2.099861e-06
188	0xb4a1ebaa	-3.0160055e-07
189	0xb6b78526	-5.4693255e-06
190	0x35a35a0b	1.2170652e-06
191	0x36c22bc4	5.7867455e-06
192	0xb6a9ced5	-5.060671e-06
193	0xb64893b6	-2.9888301e-06
194	0x36fef775	7.5985977e-06
195	0x36e3db8f	6.790687e-06
196	0xb6d0d1f0	-6.223323e-06
197	0x36d5ab8c	6.3678654e-06
198	0x36db1c8d	6.5300324e-06
199	0xb66f9776	-3.5701937e-06
200	0x36b29040	5.3216063e-06
201	0xb63b6676	-2.7924812e-06
202	0x36e6db25	6.880046e-06
203	0xb616337f	-2.2381716e-06
204	0xb6bda060	-5.651309e-06
205	0xb605b0c7	-1.9921442e-06
206	0x369818b5	4.5328293e-06
207	0x368afdfd	4.1422886e-06
208	0x3668d8a1	3.4696789e-06
209	0xb6ade58a	-5.1825236e-06
210	0x36d8961a	6.4547758e-06
211	0xb6c4ad21	-5.86141e-06
212	0xb6b6200b	-5.427753e-06
213	0xb6cf7495	-6.1826527e-06
214	0x370ac2fb	8.270838e-06
215	0xb6817f4f	-3.8593203e-06
216	0xb65d4674	-3.2972575e-06
217	0x36f02ec6	7.1580025e-06
218	0xb6bbf577	-5.60161e-06
219	0xb64077bb	-2.8679922e-06
220	0xb6ac6a61	-5.1383836e-06
221	0xb6963f5d	-4.477725e-06
222	0xb677a8dd	-3.690416e-06
223	0x360c8441	2.0938608e-06
224	0x364a1feb	3.0118924e-06
225	0xb63c93a0	-2.8100112e-06
226	0xb68397de	-3.921784e-06
227	0xb5fcc379	-1.8832353e-06
228	0x344d14c4	1.9099667e-07
229	0x368606ac	3.994288e-06
230	0x360dc1fc	2.112355e-06
231	0xb6017414	-1.9290064e-06
232	0xb6ac0bcc	-5.127373e-06
233	0x368d49ad	4.2107044e-06
234	0xb6ea0c2d	-6.975161e-06
235	0x36b8f528	5.5121673e-06
236	0x36d9600e	6.478286e-06
237	0xb565cef4	-8.5610304e-07
238	0x366205b9	3.3679955e-06
239	0x36e17914	6.719618e-06
240	0xb637d88d	-2.7395174e-06
241	0xb67ea454	-3.79446e-06
242	0x36796a24	3.7165673e-06
243	0x36e4cbd2	6.8186573e-06
244	0x36b0275f	5.249792e-06
245	0x36dfad92	6.666124e-06
246	0x366a9516	3.4955497e-06
247	0xb722df0c	-9.707885e-06
248	0xb61ec9da	-2.3661328e-06
249	0x36addbd5	5.1813936e-06
250	0x35b9702a	1.3816218e-06
251	0xb5c3bf57	-1.4584319e-06
252	0x36fbb000	7.500872e-06
253	0x3690aa57	4.3113646e-06
254	0xb64515bf	-2.9367945e-06
255	0x36b81008	5.4854936e-06

attn.out_proj.weight f4 [128, 128]
0	0x3e86c928	0.26325345
1	0x3dcda17b	0.100405656
2	0xbd578880	-0.05262041
3	0xbd18d7a4	-0.037315026
4	0xbdf5209d	-0.11969111
5	0xbe77a338	-0.24183357
6	0xbdc2373b	-0.094831906
7	0xbe42b0e4	-0.19012791
8	0xbdc5ca3c	-0.09657714
9	0x3ccdcc2a	0.025121767
10	0xbe49c451	-0.19703795
11	0x3e1aa0f1	0.15100457
12	0x3cd612cc	0.02613201
13	0x3d985e78	0.074398935
14	0xbe33b74c	-0.17550391
15	0xbde32c87	-0.11092477
16	0xbe4defdf	-0.20111035
17	0x3dda0b01	0.1064663
18	0x3e8b7db5	0.27244344
19	0x3d9d987a	0.07695098
20	0x3df50630	0.11964071
21	0x3e2a6a7c	0.16642183
22	0xbeaaaa3a	-0.33332998
23	0xbe68820b	-0.22705857
24	0x3e90970b	0.28240237
25	0xbe311173	-0.17291813
26	0xbebcaa33	-0.36848602
27	0xbd1b8669	-0.03796998
28	0xbe509a3b	-0.20371334
29	0x3c99b55e	0.01876324
30	0xbe14ade4	-0.14519459
31	0x3e2d103d	0.16900726
32	0x3d963eab	0.07336172
33	0x3d4ec2b1	0.05047864
34	0xbddf4e02	-0.10903551
35	0x3d9a16d6	0.07523887
36	0xbdce6b4d	-0.1007906
37	0xbde4f320	-0.11179185
38	0x3e16dc3c	0.1473245
39	0x3cdef6a6	0.02721722
40	0xbd0b4810	-0.03400427
41	0x3d3f2ec1	0.046675447
42	0xbc908446	-0.017641198
43	0x3dbdae67	0.0926178
44	0xbdd1e1a1	-0.102481134
45	0xbd5b4bb6	-0.053539
46	0x3d49ee90	0.049299777
47	0x3d129049	0.035782132
48	0x3d5401bd	0.05175947
49	0xbd946733	-0.07246246
50	0x3d67dd99	0.056607816
51	0xbbafa8ce	-0.0053606993
52	0x3d523e35	0.051328856
53	0x3c49b773	0.012311804
54	0xbe348452	-0.17628601
55	0xbda23b6c	-0.0792149
56	0xbbc99151	-0.0061513563
57	0x3d52f16e	0.051499777
58	0x3d49d2ce	0.049273305
59	0x3c7b5dca	0.015342185
60	0x3d1ad4ef	0.037800726
61	0x3b945930	0.0045272335
62	0x3e0fe951	0.14053847
63	0xbcfe3df3	-0.031035399
64	0xbcec6ea5	-0.028861353
65	0xbca493cf	-0.020090012
66	0xbdcffcac	-0.10155615
67	0x3db64d7c	0.08901498
68	0xbd040723	-0.03223337
69	0xbe0b6dae	-0.13616058
70	0x3e629658	0.22127664
71	0xbdf77d29	-0.12084419
72	0x3bbffb37	0.0058588046
73	0xbc9a1636	-0.01880942
74	0x3de1c9a3	0.11024787
75	0x3c002e3e	0.007823525
76	0xbe330d47	-0.17485534
77	0xbc5ca3ef	-0.013466819
78	0xbe0c24b8	-0.13685882
79	0x3d7655b9	0.060140345
80	0xbdc30a54	-0.09523454
81	0xbc7f9d39	-0.01560145
82	0xbd659c04	-0.05605699
83	0x3df955a2	0.12174536
84	0x3d0d557f	0.034505364
85	0x3db49558	0.088175476
86	0xbc180c28	-0.009280242
87	0x3cc4733c	0.02398073
88	0xbdf47c5c	-0.11937782
89	0x3d4db2c4	0.050219312
90	0x3c69e789	0.014276394
91	0xbd40f087	-0.047104385
92	0xbd678a1b	-0.056528192
93	0xbd7833da	-0.060596325
94	0xbd7f86a8	-0.062384278
95	0xbd86729f	-0.06564831
96	0x3cd7ee68	0.026358798
97	0x3a153bdd	0.0005692819
98	0x3e34fcaf	0.17674516
99	0x3e5b075e	0.21389529
100	0xbddeace9	-0.10872824
101	0x3d9ea480	0.0774622
102	0xbe2e5ada	-0.17026845
103	0xbe18f3a2	-0.14936689
104	0x3c8646df	0.016391216
105	0xbd63d84f	-0.05562621
106	0xbd98e569	-0.074656315
107	0x3e4ca2df	0.19984005
108	0xbe1b5399	-0.15168609
109	0x3ba63fe6	0.0050735353
110	0x3e076c45	0.13224895
111	0x3e555f19	0.20837058
112	0xbd2a2945	-0.041543264
113	0xbe51e19b	-0.20496218
114	0xbe2c3f7c	-0.16821092
115	0x3dc4cfbf	0.09609937
116	0x3e00d2f5	0.12580474
117	0x3df38b36	0.11891787
118	0xbc3811e9	-0.011234739
119	0xbce46b95	-0.02788333
120	0x3dddb41c	0.10825369
121	0x3e4acbd9	0.19804324
122	0xbe0b7ccf	-0.1362183
123	0xb9aa0aeb	-0.0003243306
124	0xbdf1fc3e	-0.118156895
125	0xbc741708	-0.014898069
126	0x3dd40bb1	0.103537925
127	0xbcc4bc74	-0.024015643
128	0x3d79a994	0.060952738
129	0x3e4e9673	0.2017458
130	0xbcf04e58	-0.029334232
131	0x3d312812	0.043251105
132	0xbd0940f8	-0.033509225
133	0xbd4a51d3	-0.04939444
134	0xbd4b4735	-0.049628455
135	0x3e132f3d	0.14373489
136	0x3dac5439	0.08414502
137	0x3e32fab8	0.17478454
138	0x3d5e1e3d	0.054228056
139	0xbd7df3fd	-0.062000263
140	0x3e1f5680	0.15560341
141	0x3dbfd9be	0.09367703
142	0xbdf3b6ae	-0.11900078
143	0x3d2761d5	0.040864784
144	0x3d5267db	0.051368576
145	0xbcd3c93f	-0.025852798
146	0x3e477660	0.1947875
147	0x3e6225bd	0.22084709
148	0xbdcc8590	-0.099864125
149	0xbe0f2c9e	-0.13981864
150	0xbe1f39f0	-0.15549445
151	0x3dd395b2	0.103312865
152	0x3e873e28	0.2641461
153	0xbceb3996	-0.028713983
154	0x3e2827d4	0.16421443
155	0x3e1f4f54	0.15557605
156	0x3cc860c4	0.024460204
157	0xbd4ed33a	-0.05049441
158	0xbd17e4da	-0.037083484
159	0x3d3e4e1d	0.046461213
160	0xbdf1dea2	-0.11810042
161	0x3db056d9	0.08610315
162	0xbe6d1c3c	-0.23155302
163	0x3e5c0fb2	0.21490362
164	0xbe0444d4	-0.12916881
165	0xbc46b8b7	-0.012129
166	0x3df13127	0.11776953
167	0x3df18ee1	0.1179483
168	0x3db9bad4	0.09068838
169	0x3d3ddf86	0.046355747
170	0xbdfc2cf6	-0.12313263
171	0xbe043112	-0.12909344
172	0xbd4c3226	-0.049852513
173	0xbdc83ba6	-0.09777002
174	0xbe4ca1df	-0.19983624
175	0x3d9fad17	0.07796686
176	0x3e2797af	0.16366456
177	0x3da89f5e	0.08233522
178	0x3d788efa	0.060683228
179	0x3ca33fcf	0.019927887
180	0xbd8f6cea	-0.070031956
181	0xbe1d2bad	-0.15348692
182	0xbc1eb83d	-0.0096874805
183	0xbd990f11	-0.07473577
184	0xbe8d4833	-0.27594146
185	0x3d94eb52	0.07271446
186	0xbcbccc28	-0.023046568
187	0xbcda3296	-0.02663545
188	0xbe1f239e	-0.1554093
189	0x3e66e656	0.22548804
190	0xbe149a3c	-0.1451196
191	0x3cbc249d	0.022966677
192	0x3e113f3e	0.14184281
193	0x3b20d6d4	0.002454211
194	0xbd704fed	-0.058669973
195	0xbc658163	-0.014007899
196	0x3d37bb7b	0.04485653
197	0x3d36c92f	0.044625457
198	0xbdb9d991	-0.090747006
199	0x3d5de0f5	0.054169614
200	0xbd4528e4	-0.0481347
201	0xbb5579cb	-0.0032573815
202	0x3d9c8fff	0.076446526
203	0x3dcc2074	0.099671274
204	0xbd90a5de	-0.07062887
205	0x3cdb50a7	0.026771856
206	0x3d5fdaab	0.054651897
207	0x3c1a73e0	0.009427041
208	0x3d2705f1	0.04077715
209	0xbb0729dd	-0.0020624318
210	0x3e031540	0.12801075
211	0xbdfdab73	-0.12386217
212	0xbc398443	-0.011323038
213	0xbd31f22b	-0.04344384
214	0x3d44ddae	0.048062973
215	0x3d2bac7c	0.04191254
216	0x3c01ccfd	0.007922408
217	0xbd885742	-0.06657268
218	0xbcacb4f8	-0.021082386
219	0x3cf63365	0.030053804
220	0xbd48323c	-0.048876032
221	0x3d23a1f2	0.039949365
222	0xbbab0d39	-0.005220082
223	0xbdb23baa	-0.08702786
224	0xbe8551a6	-0.26038855
225	0x3e0c7f1f	0.13720368
226	0xbe518c2c	-0.20463628
227	0xbe08e2ba	-0.1336774
228	0x3d3b01c7	0.045655992
229	0x3d53e8c7	0.051735666
230	0x3e1d1e50	0.15343595
231	0x3e37b8c4	0.17941576
232	0x3ce874bc	0.028375976
233	0x3ce4d0f6	0.027931672
234	0xbc7a1bf1	-0.015265451
235	0xbe2edc48	-0.17076218
236	0x3e01b95f	0.1266837
237	0x3d54e8de	0.051979892
238	0xbc83f275	-0.016106823
239	0x3e249cfe	0.16075513
240	0x3da1a74a	0.07893236
241	0xbd92ebc4	-0.07173875
242	0xbe4277bf	-0.18990992
243	0x3dcd53c7	0.10025745
244	0xbe4c104e	-0.19928095
245	0xbcf37ce4	-0.029722638
246	0xbe12b19a	-0.14325562
247	0xbda652b4	-0.08121243
248	0x3d5985c0	0.05310607
249	0x3d14ea44	0.036356226
250	0x3c937cc3	0.018003827
251	0x380fe78b	3.4309498e-05
252	0x3e244906	0.16043481
253	0xbb54fd4e	-0.0032499614
254	0x3e4edffa	0.20202628
255	0xbc9eaceb	-0.019369563

attn.out_proj.bias f4 [128]
0	0x3db3c496	0.0877773
1	0xbcc2447f	-0.023714302
2	0x3cbfeefa	0.023429383
3	0x3b788880	0.0037923157
4	0x3ce5f129	0.028069096
5	0xbd86bc6c	-0.06578907
6	0x3d09236d	0.03348105
7	0xbcbfcf8d	-0.023414398
8	0x3cc861dd	0.024460727
9	0xbcca63da	-0.024705816
10	0x3cc17859	0.023616957
11	0xbc63093c	-0.013857182
12	0xbd3abcea	-0.04559032
13	0xbd163153	-0.036668133
14	0xbcf39d71	-0.02973816
15	0x3dbee3db	0.09320804
16	0x3d453741	0.048148397
17	0x3d0e2fe6	0.03471365
18	0x3d1f90fa	0.03895662
19	0xbd020408	-0.031742126
20	0x3c6938c5	0.014234726
21	0x3d40ae89	0.04704145
22	0x3ce4dc05	0.027936945
23	0x3bd12851	0.00638298
24	0x3c5d7fef	0.013519271
25	0xbc19d99c	-0.009390261
26	0x3d3b88b3	0.045784663
27	0xbc648adf	-0.013949125
28	0x3caef26a	0.021355826
29	0xbd449345	-0.04799201
30	0x3de5e32b	0.112249695
31	0xbd39329a	-0.045214273
32	0xbd2a6225	-0.041597504
33	0xbcab198a	-0.020886201
34	0x3dad0b57	0.084494285
35	0xbcd46dca	-0.025931258
36	0x3d39bca0	0.045345902
37	0xbdb037f4	-0.08604422
38	0xbcfd0299	-0.030885028
39	0xbd817d70	-0.063227534
40	0xbd3bab88	-0.04581788
41	0xbcf2057c	-0.02954363
42	0x3d2b695f	0.041848537
43	0x3db7acc2	0.08968498
44	0x3c02ba47	0.007978982
45	0x3c157621	0.009122402
46	0x3d2c6e4c	0.042097375
47	0xbe04504b	-0.12921254
48	0x3b83a4d4	0.004017452
49	0x3db6fd47	0.089350276
50	0xbd465a26	-0.048425816
51	0xbd823a05	-0.063587226
52	0x3cdae16c	0.026718818
53	0x3d8e43be	0.069465145
54	0xbd1404ab	-0.036137264
55	0xbc7ac3ed	-0.015305501
56	0x3dba2fe8	0.09091169
57	0x3d3ac365	0.0455965
58	0x3b21d097	0.002469098
59	0x3de9c075	0.114136614
60	0x3c83ff76	0.016113024
61	0x3cddadc6	0.0270604
62	0xbd5157c5	-0.051109094
63	0xbd8a1483	-0.067421935
64	0x3d09d853	0.03365357
65	0x3db22407	0.08698278
66	0xbd2846fe	-0.04108333
67	0x3ca88bde	0.020574506
68	0xbd8363d1	-0.06415523
69	0xbb88d7c9	-0.004176114
70	0xbc813203	-0.015770918
71	0xbc5726d2	-0.013131814
72	0xbe093748	-0.13399994
73	0x3d4d4a7f	0.050119873
74	0x3c96e499	0.01841955
75	0xbd9c8864	-0.07643202
76	0x3b0876b3	0.0020822703
77	0x3d9ab450	0.07553923
78	0xbd2faf52	-0.042891808
79	0x3e2978ec	0.16550034
80	0x3d8970e8	0.06710988
81	0x3d373804	0.044731155
82	0x3d2d11ed	0.042253423
83	0xbcb62212	-0.022233043
84	0x3d8a15fa	0.06742473
85	0xbd0f0c4a	-0.03492383
86	0x3db4a989	0.08821399
87	0x3d8b639d	0.06806109
88	0xbc82609f	-0.015915213
89	0x3d40c7c4	0.04706551
90	0xbd4090c2	-0.04701305
91	0xbbf08c03	-0.0073409094
92	0x3d6a71f1	0.05723757
93	0xbd177018	-0.036972135
94	0xbb033db3	-0.002002579
95	0xbc0bc2ab	-0.008530299
96	0x3ddf688e	0.10908614
97	0xbd56b551	-0.05241901
98	0xbd1013d0	-0.035175145
99	0xbd644d5e	-0.055737846
100	0xbca0673d	-0.019580478
101	0xbcb34a62	-0.021886054
102	0x3d46b5aa	0.048513092
103	0x3ce62453	0.028093493
104	0xbdac46fc	-0.08411977
105	0x3d3628f8	0.044472665
106	0xbd70d6f1	-0.058798734
107	0x3dfe53ab	0.12418302
108	0x3be20127	0.00689711
109	0xbc221d47	-0.009894676
110	0xbd03b995	-0.032159407
111	0x3c1ef595	0.009702106
112	0xbcb2b7bb	-0.021816125
113	0xbc938523	-0.01800782
114	0xbce06cb4	-0.027395584
115	0x3e083e17	0.13304935
116	0xbda17932	-0.07884444
117	0x3d4a98c8	0.04946211
118	0xbd10d44f	-0.035358723
119	0xbdf8a567	-0.12140923
120	0xbc60e69a	-0.013726855
121	0x3e02067e	0.12697789
122	0xbc7de26f	-0.0154958805
123	0x3cf6b188	0.03011395
124	0xbd1f1536	-0.038838588
125	0xbd084f5c	-0.033278808
126	0xbcd98137	-0.026550872
127	0x3ba43829	0.0050115776

mlp.0.weight f4 [512, 128]
0	0xbbde4a08	-0.0067837276
1	0xbbb00a10	-0.0053722933
2	0x3cb4084a	0.021976609
3	0xbb70ace1	-0.0036724138
4	0x3c018d94	0.00790729
5	0x3ba10282	0.004913629
6	0x3cf5e26f	0.030015199
7	0xbbe8ca07	-0.0071041617
8	0x3bf8653f	0.007580429
9	0xbb88421f	-0.004158273
10	0x3b41cc46	0.002957122
11	0x3b2e9694	0.0026640045
12	0xbc6444c0	-0.013932407
13	0xb7b85ce6	-2.1977768e-05
14	0xbc3ebeab	-0.0116421385
15	0xbb9c0631	-0.0047614803
16	0xba6445c8	-0.0008707908
17	0xbb4b9090	-0.0031061508
18	0xbb42ff9a	-0.0029754401
19	0xbc8b1c03	-0.01698113
20	0xbcbb7686	-0.022883665
21	0x3c51e6e7	0.012811399
22	0x3cb8b8ac	0.022548996
23	0x3c94c7ee	0.01816174
24	0x3c0456df	0.008077352
25	0xbc872593	-0.016497409
26	0x3c194c51	0.009356574
27	0xbc68bc14	-0.014204998
28	0x3ba5fa2b	0.0050652227
29	0x3c0b73aa	0.008511463
30	0xbbb0a16f	-0.005390338
31	0xbd24a711	-0.04019839
32	0xbb72e406	-0.0037062182
33	0xbc999032	-0.018745515
34	0x3cb912bd	0.022591943
35	0x3c8e1047	0.017341746
36	0x3c239242	0.009983601
37	0xbc6af2ec	-0.014340144
38	0xba57cfc2	-0.00082325574
39	0x3a8d4716	0.0010778632
40	0xbb5c3581	-0.0033601227
41	0xbcc15cde	-0.023603853
42	0x3b0a3504	0.0021088729
43	0x3c5a66ce	0.013330175
44	0xbca92482	-0.020647291
45	0x3b8a82e4	0.004227029
46	0xbadf6a02	-0.0017045143
47	0xbc97b52b	-0.018519005
48	0xbbaa36b7	-0.005194511
49	0x3b7c0952	0.0038457704
50	0xbbdde906	-0.0067721633
51	0xbc17ce3e	-0.009265481
52	0xbb108ea9	-0.0022057688
53	0x3c14d320	0.009083539
54	0xbc06fb8e	-0.008238686
55	0xbcc46d94	-0.023978032
56	0x3d209d9f	0.03921282
57	0x391c3b03	0.00014899303
58	0xba837a33	-0.0010030925
59	0x3cbf75f7	0.02337168
60	0xbc5d546b	-0.013508896
61	0xbb186a9f	-0.002325691
62	0x3c89f4b4	0.016840316
63	0x3bbdc70c	0.0057915505
64	0x3b8b22df	0.0042461003
65	0x3c696c68	0.0142470375
66	0xbb2c6aae	-0.0026308703
67	0xbbf01de2	-0.007327781
68	0xbb94cf6a	-0.0045413272
69	0x39559a8e	0.00020370839
70	0x3d23e263	0.04001082
71	0xbb5b1304	-0.0033428082
72	0xbcb69c7f	-0.02229142
73	0x3c182066	0.009285068
74	0xbcfce809	-0.030872362
75	0xbd05cf56	-0.032668434
76	0x3bb48f07	0.0055102143
77	0x3cb8592a	0.022503454
78	0x3c213022	0.009838136
79	0x3d0631b7	0.032762256
80	0x3b9a33ef	0.004705898
81	0xbbd50cbb	-0.0065017617
82	0xbcb5bc14	-0.02218441
83	0xbc84c8a6	-0.016208958
84	0x3c9e57bc	0.019328944
85	0xbc547b9a	-0.012968922
86	0x3cdcf060	0.026970088
87	0x3c1749b3	0.00923388
88	0x3b8e4f11	0.0043429215
89	0x3bdea68f	0.0067947577
90	0x3cb82b29	0.022481518
91	0x3bd572b6	0.0065139187
92	0x3d1d4931	0.03839988
93	0x3b8dd8ab	0.0043288074
94	0x3a00a944	0.0004908035
95	0x3c6dfef7	0.01452612
96	0x3d0cace7	0.03434458
97	0x3c0eae67	0.008708573
98	0x3a9171cf	0.001109654
99	0xbc5cf817	-0.013486884
100	0x3c9ff66c	0.019526683
101	0x3b84f85b	0.0040579266
102	0x3c6e8451	0.014557914
103	0x3ae9060d	0.0017778293
104	0x3a52ad3d	0.0008036679
105	0x3d1431e8	0.036180407
106	0xbc7e4425	-0.015519177
107	0x3d2704d2	0.04077608
108	0x3bb666ee	0.0055664694
109	0x3c32fa9d	0.010924009
110	0xbc6436b1	-0.013929055
111	0xbc2c1ef6	-0.010505429
112	0xbc935685	-0.017985592
113	0x3c83e3c7	0.016099824
114	0x3c15cac9	0.009142586
115	0x3ce22880	0.027607203
116	0xbbdb772a	-0.006697555
117	0x3d1be650	0.03806144
118	0xbbd5ea89	-0.006528203
119	0xbaad037b	-0.001319989
120	0xbb394df3	-0.002827522
121	0x3c182406	0.009285932
122	0x3bc62bd6	0.006047706
123	0xbbf355e6	-0.0074260114
124	0xbc6bd8b1	-0.014394925
125	0xbb6b81be	-0.0035935487
126	0x3bcb293f	0.0061999853
127	0x3bd4e62f	0.0064971666
128	0x3d63b35f	0.055590983
129	0xbcea7370	-0.028619498
130	0x3d524e6b	0.051344316
131	0x3c82e6ff	0.015979288
132	0xbd3c4f07	-0.045973804
133	0xbc32ac5b	-0.010905351
134	0xbc1428b2	-0.009042906
135	0xbd2cb5b9	-0.04216549
136	0x3bed3c6c	0.007239869
137	0x3c06efa8	0.008235849
138	0x3cacf38e	0.02111223
139	0xbc5327ae	-0.012887878
140	0xbc200246	-0.009766167
141	0xbc0e22fd	-0.008675334
142	0xbcc82cbd	-0.024435395
143	0x3d26b57c	0.04070042
144	0x3d38df15	0.045134623
145	0xbcc364ad	-0.023851717
146	0xbccda183	-0.025101429
147	0xbccfeaaa	-0.025380451
148	0x3c950842	0.018192414
149	0xbba94ff3	-0.0051670014
150	0x3b9549c2	0.0045559118
151	0xbbc7b79b	-0.0060948855
152	0xbcb486db	-0.02203696
153	0x3d7a3c88	0.061092883
154	0xbce51f1d	-0.027968938
155	0x3cc91b13	0.024549043
156	0x3c0fbecf	0.00877352
157	0x3bcb6574	0.0062071625
158	0xbcb685d5	-0.022280613
159	0x3c3b5a7c	0.011435147
160	0x3c61c322	0.013779433
161	0xbcca1281	-0.024667026
162	0x3c7d45f6	0.0154585745
163	0xbc4c65bc	-0.012475427
164	0x3a276cbd	0.00063867477
165	0x3d26f21e	0.040758245
166	0x3c4b6f10	0.012416616
167	0xbcafbee9	-0.021453338
168	0xbcb73326	-0.022363257
169	0x3b0bd2d2	0.0021335375
170	0xbd22af1b	-0.039717775
171	0x3b6a4dd1	0.0035751949
172	0x3d0d2edb	0.034468513
173	0xbc9dccc1	-0.019262673
174	0x3ce4329b	0.027856162
175	0x3c8f8805	0.017520914
176	0xbd263caf	-0.040585216
177	0xbb87b7ba	-0.004141775
178	0x3d5ea104	0.054352775
179	0x3c6968cb	0.014246176
180	0xbc879697	-0.016551299
181	0xbc5b46a2	-0.013383539
182	0x3c184041	0.009292663
183	0x3c74b73b	0.014936264
184	0x3cd57970	0.026058882
185	0xbb9c14f6	-0.004763241
186	0xbd120e82	-0.035658367
187	0xbcf80f06	-0.030280601
188	0xbd30d47c	-0.04317139
189	0xbca90e69	-0.020636754
190	0xb9613bf9	-0.00021480014
191	0xbca916b7	-0.020640714
192	0x3a367e78	0.00069615943
193	0xbd162048	-0.03665188
194	0xbba13c77	-0.004920538
195	0xbcd445e5	-0.025912235
196	0xbc9390ff	-0.018013475
197	0x3beba1d1	0.007190921
198	0x3a830afb	0.0009997779
199	0x3c2aa151	0.010414437
200	0xbcd43ba3	-0.025907343
201	0xbc8f04b0	-0.01745829
202	0xbd97f118	-0.07419032
203	0x3ba4f0d1	0.0050335904
204	0x3d230edb	0.03980909
205	0xbcae8b92	-0.021306787
206	0xbc50bfff	-0.012741088
207	0x3d381369	0.044940386
208	0xbcfda6ec	-0.030963384
209	0xbbb6fdf1	-0.0055844714
210	0x3b2c899a	0.0026327134
211	0x3ba0e64f	0.0049102674
212	0x3ad6d987	0.0016391732
213	0x3bb7d292	0.0056098187
214	0xbcc9b445	-0.024622092
215	0x3cc8f4f0	0.024530858
216	0xbc12bb9d	-0.008955863
217	0x3d0d3d3f	0.034482237
218	0x3c7d926c	0.015476804
219	0xbb8e8739	-0.004349616
220	0x3a76d69a	0.00094161334
221	0xbca7f4cf	-0.020502476
222	0x3b2e9ffa	0.0026645646
223	0x3caad230	0.020852178
224	0xbc0be501	-0.0085384855
225	0x3bc67385	0.0060562515
226	0xbd97db10	-0.0741483
227	0x3bcfb79e	0.0063390275
228	0xbcda5a75	-0.026654461
229	0xbb60d700	-0.0034307837
230	0x3ca7a999	0.020466613
231	0xbc20e7bd	-0.009820876
232	0x3b1e5095	0.0024156917
233	0xbc384afc	-0.011248346
234	0x3cafb827	0.021450115
235	0x3d1e3e23	0.038633477
236	0xbce6b304	-0.028161533
237	0x3c8e0833	0.017337894
238	0x3c950783	0.018192058
239	0xbb3d216a	-0.0028859028
240	0xbd30c3cc	-0.043155476
241	0x3cea7c63	0.028623765
242	0xba4ea9e1	-0.00078835903
243	0x3cc27985	0.023739586
244	0xbc4cf939	-0.012510591
245	0x3c986de7	0.018607093
246	0x3d54df43	0.05197073
247	0xbb8aea9b	-0.004239393
248	0x3c29c05d	0.010360804
249	0x3cac7e62	0.021056358
250	0xbc9dfc4c	-0.019285344
251	0x3c0c90b6	0.008579424
252	0xbc80cdb8	-0.015723094
253	0xba2cba3c	-0.00065890304
254	0x3c5f4758	0.0136278495
255	0x3c9a36c1	0.018824937
